zipped_files/test/euler_model.pt (torch, 15951 bytes, 7 tensors)

fc1.weight f4 [32, 7]
000000 7e 3c 3c bf 61 6b 90 bf cd cc 69 bf 11 fb e3 3f
       -0.73529804 -1.128277 -0.91328126 1.7810994
000010 db d7 07 40 86 7b 14 bf f5 ab 4b 40 4a 06 26 bf
       2.1225498 -0.5800098 3.1823704 -0.64853346
000020 45 d6 27 bf 76 60 b6 3e 0d 9e cd 3e a8 24 96 3c
       -0.65561324 0.3562047 0.40159646 0.018328026
000030 c9 cc 53 bf 2b 36 59 40 f0 b2 be 3f 45 2c 27 3d
       -0.8273435 3.3939312 1.4898357 0.040813703
000040 f3 78 1f c0 81 86 83 c0 48 b5 47 c0 75 52 10 40
       -2.4917572 -4.110169 -3.1204395 2.2550328
000050 8e 3b 31 c0 7b 22 5c c0 28 a5 f4 3e 9e 0b b5 40
       -2.76926 -3.4396045 0.47782254 5.657668
000060 44 50 22 3e e5 87 45 3f de b6 4f c0 ed b8 0e bd
       0.15850931 0.77160484 -3.2455363 -0.034844328
000070 c1 5a 4a bd de 31 04 bf 74 d7 27 3e 09 5a 64 c0
       -0.049402956 -0.5163859 0.16390783 -3.5679953
000080 f1 68 4a 3f df 36 f1 be 8e da 3e 40 98 62 af 3f
       0.7906638 -0.47112176 2.9820895 1.3701963
000090 59 a1 8b 3f ea 30 9e 3e 54 aa ee 3e b4 25 96 bb
       1.0908614 0.30896693 0.46614325 -0.0045821313
0000a0 1f aa d7 3f f0 d8 59 c0 7f de 8c 3f f1 50 09 bd
       1.6848792 -3.4038658 1.10054 -0.033524457
0000b0 ec 66 52 bf 56 6c 24 bf 89 82 33 bf c3 bf 06 3f
       -0.82188296 -0.6422781 -0.70121056 0.52636355
0000c0 af 85 4e c0 9b 0f d6 bf 67 af 6e bf 1b b8 a7 3f
       -3.2269094 -1.6723512 -0.9323639 1.310306
0000d0 18 d4 51 c0 68 23 19 c0 b1 eb e3 bf b3 67 3d 40
       -3.2785702 -2.392786 -1.7806302 2.9594543
0000e0 3a ab 86 c0 3d d6 b0 bf c5 da 73 40 eb c2 78 40
       -4.2084017 -1.381538 3.8102276 3.8868968
0000f0 7b 1a 58 be 26 ef 91 c0 ef 87 94 3f 6f 5d 22 c0
       -0.21103851 -4.560443 1.1603984 -2.5369527
000100 de 5b 02 3e 82 23 8c 40 8d c8 79 3f 4a 63 92 bd
       0.12730357 4.3793344 0.9757164 -0.07147844
000110 ec 35 19 c0 f2 76 2c c0 4a 67 73 3f ea 8e bd 3d
       -2.3939161 -2.6947598 0.9507948 0.09255774
000120 b4 76 c4 bf a1 41 fa bc 2d 87 13 3c ea 6f 9b 3f
       -1.5348725 -0.030548872 0.009004396 1.2143528
000130 f6 4c 41 c0 61 d0 14 3e db b9 82 3e 98 d1 94 bf
       -3.0203223 0.14532615 0.2553242 -1.1626463
000140 76 1f 80 bd a8 cd 4b bc 70 dd 6f 3f ae 81 46 c0
       -0.06256001 -0.012439169 0.9369726 -3.101665
000150 8d 83 a3 bf 53 14 09 be b0 37 f6 3f b9 a6 31 bf
       -1.2774521 -0.1338666 1.9235744 -0.69395024
000160 94 1d 7d 3f c9 55 e4 bf 04 47 37 40 cd 4d c3 3f
       0.9887326 -1.783868 2.8637094 1.5258118
000170 e3 e5 eb be 87 ce 2d c0 c0 f6 9f c0 52 7d eb 40
       -0.46073827 -2.7157304 -4.998871 7.359048
000180 29 1b 96 3f e9 f7 b0 3b 07 9b 05 3f d0 bd b6 3e
       1.1727039 0.005400647 0.5218968 0.3569169
000190 44 45 9e bf 07 42 41 3e 13 65 8c 3c f0 87 45 3f
       -1.2364888 0.18872844 0.01713804 0.7716055
0001a0 87 74 4f c0 13 92 72 3f 5c a9 9b 3e ab 1e 79 bf
       -3.2414873 0.9475414 0.30402648 -0.9731242
0001b0 47 9d 15 3f 92 c1 57 be 15 ff 8f 3f d2 b1 4a c0
       0.5844311 -0.21069935 1.124972 -3.1671033
0001c0 90 b6 70 3f 4c f3 62 3e c8 87 53 bf 4c 86 cd bf
       0.9402857 0.22163123 -0.8262906 -1.6056609
0001d0 1c 5d 02 3f 35 f8 4f 3f f3 11 3e c0 07 71 50 40
       0.50923324 0.8123811 -2.9698455 3.2568986
0001e0 05 90 a3 bf 7e 18 5d c0 8c 9f 2b 3b 38 88 98 3e
       -1.2778326 -3.45462 0.0026187627 0.29791427
0001f0 e4 36 be 3f ef 08 1b c0 d1 61 e2 be ce e9 ba be
       1.4860501 -2.4224203 -0.44215253 -0.36506504
000200 ee 9c 8a 3f 4b ef 3a c1 cb 89 4a bd 42 12 64 be
       1.0829141 -11.683421 -0.049447816 -0.2227259
000210 43 fb 3b 40 9d e0 d5 be e3 a7 80 bf 01 18 2d c0
       2.9372108 -0.4177293 -1.0051235 -2.70459
000220 ff 03 82 3e 17 08 1f be c0 22 a7 be 0d 49 0c 40
       0.25393674 -0.1553043 -0.326437 2.1919587
000230 67 f2 0e bf 62 b0 ae 3e a2 41 04 40 34 9e 80 c0
       -0.55838627 0.34118944 2.066506 -4.019312
000240 ef a4 30 41 ad 21 3c bf 06 37 31 c0 de 2e 51 3f
       11.040267 -0.73488885 -2.7689834 0.8171214
000250 64 a0 37 3f 3a f2 8e bf cd 5f dc 3f 6d cf c3 be
       0.7172911 -1.1167672 1.7216736 -0.3824419
000260 20 80 2e 3f 96 3d 62 bf 56 c0 c1 bf eb 3e 55 bf
       0.68164253 -0.8837522 -1.5136821 -0.8329913
000270 82 56 21 3f ad ec 76 bf d5 19 3e c0 1e 54 09 c0
       0.63022625 -0.9645489 -2.9703267 -2.145759
000280 73 b5 15 40 0e 98 ce 3f e4 04 00 40 86 a9 bc 3f
       2.3391998 1.6140153 2.0002985 1.4739234
000290 70 1c 91 3e ab 49 0a bf 8d 0d 09 40 43 99 5b c0
       0.2834201 -0.5401866 2.141452 -3.4312294
0002a0 53 a9 bf 40 e4 12 a8 3f 2b c5 99 c0 c9 e9 53 3f
       5.9894195 1.3130765 -4.8053184 0.827786
0002b0 d0 50 4b c0 b3 ad b9 40 59 98 86 bf 21 3e b3 bf
       -3.1768074 5.8024535 -1.0515243 -1.4003335
0002c0 60 9d f4 3d 12 f1 b1 3f 38 eb 55 c1 2f f0 37 c1
       0.119440794 1.3901694 -13.369926 -11.496139
0002d0 6d 10 80 bf de e7 02 c0 09 ed a3 bf 8f 5d 8e bf
       -1.0005013 -2.045402 -1.2806712 -1.1122302
0002e0 b9 d8 f9 3d f0 0e 3b 41 0e 00 49 c0 96 3b e2 bf
       0.1219954 11.691147 -3.1406283 -1.7674434
0002f0 d7 72 49 40 11 76 91 3d 83 ef 1c 3e 43 9e 30 3f
       3.1476343 0.071025975 0.15325741 0.6899149
000300 f3 75 2f 42 7d ef 5c bf 60 5c 5a 3e cf ca 06 40
       43.865185 -0.8630293 0.21324301 2.1061285
000310 70 ce 8b c0 63 9b 00 40 d3 76 4b 40 5c cd 44 bd
       -4.36895 2.009484 3.1791275 -0.04804741
000320 36 df 1f 3e d9 f9 36 bf cc e2 99 bf dc 9e 99 3e
       0.15612492 -0.7147499 -1.2022338 0.30004013
000330 fb 7b 14 3e 5e f8 cc bf b8 ac 61 be 27 29 8e bc
       0.1450042 -1.6013296 -0.22038543 -0.017353607
000340 47 b6 ba 3e fb 47 43 c0 53 a3 60 3f bf 5a 18 be
       0.36467192 -3.0512683 0.87749213 -0.14878367
000350 30 9d bc bf bd 34 89 be 4d f8 1f 3f 17 f5 ab 3f
       -1.473547 -0.2679805 0.6248825 1.343417
000360 ab c0 46 c0 a4 66 1a 40 c0 85 a0 40 4b b6 0a 41
       -3.1055095 2.4125147 5.016327 8.669505
000370 58 33 a0 c0 b5 70 56 3e 89 c5 0d 40 cd 91 2c c0
       -5.0062675 0.20941432 2.2151816 -2.696399

fc1.bias f4 [32]
000000 9c 7b 11 3e 3c 13 a7 3e dc 6c 82 be 08 01 08 be
       0.1420731 0.32631862 -0.25473678 -0.13281643
000010 50 37 b4 3e a0 65 3b 3a b2 54 ce be 0d 0a 01 3e
       0.3519845 0.0007148627 -0.40298992 0.1260149
000020 68 8b 08 bf 53 3d 01 bf 8d a5 b7 be b7 c5 e6 be
       -0.5333772 -0.504842 -0.35868493 -0.4507272
000030 54 12 90 3e c7 50 d7 bc 17 39 e7 be d6 e7 a5 be
       0.28138983 -0.026283635 -0.45160744 -0.3240344
000040 49 08 a5 be 71 ef a3 be 72 d3 e0 3e 97 88 b8 bd
       -0.32232884 -0.32018617 0.4391132 -0.090104274
000050 5d 3e a6 be e3 ea d8 bb 85 32 91 bd f7 63 30 3e
       -0.32469454 -0.0066197976 -0.07089714 0.17225634
000060 a0 2b 46 3f cd d5 df be 3d 2c 98 3d 21 5b fd 3e
       0.77410316 -0.43717805 0.07430313 0.49483588
000070 e7 16 7e be a7 b3 01 bf 05 a5 c9 be b0 6b b7 3f
       -0.24813424 -0.5066475 -0.39383712 1.4329739

fc2.weight f4 [64, 32]
000000 eb 9e ad 3f 94 0c 32 3f 7b 13 e8 bf 87 6c 81 40
       1.3564123 0.6955044 -1.8130945 4.044498
000010 b6 3a f7 3e ad 3f 91 bd c7 65 15 c0 59 e9 1c 40
       0.4828698 -0.07092223 -2.334337 2.4517424
000020 61 4d d6 bf 73 96 12 bf ef 70 3c c0 51 5c f3 c0
       -1.6742364 -0.5726082 -2.944393 -7.605019
000030 ba 6f c0 bf eb d8 34 40 0e 3b 14 c1 5f 77 35 3f
       -1.5034096 2.8257396 -9.264418 0.7088527
000040 5f 43 a7 3f f1 6e 15 bf ab 8c f6 bf 88 62 81 3f
       1.3067435 -0.5837241 -1.9261678 1.0108194
000050 eb 7d 75 be 5c 4e 23 c0 ed 49 74 c0 da b4 b3 3f
       -0.23973815 -2.5516577 -3.817012 1.4039567
000060 1a a2 de 3f 63 3e 63 bf f0 f3 77 bf 40 95 7f bf
       1.739322 -0.8876707 -0.96856594 -0.9983711
000070 88 9c 2c 40 49 85 d5 c0 3c f1 e3 c0 a9 ed cd bf
       2.697054 -6.67252 -7.1231976 -1.6088153
000080 40 ff 26 bf ef 96 23 c2 ac fa 62 3e 1c 3b 85 3f
       -0.6523323 -40.897396 0.22165936 1.0408664
000090 38 e4 a8 be 6f 7a 03 c0 26 0b b2 40 23 68 f8 bd
       -0.32986617 -2.0543478 5.563861 -0.121292375
0000a0 84 45 8c bf 78 75 3d c0 58 c8 04 40 5b 5f c1 40
       -1.0958714 -2.9602947 2.074728 6.04289
0000b0 f5 3e f1 3e f9 63 5f bf 25 ae 03 42 c4 76 6a c0
       0.47118345 -0.8726192 32.920063 -3.6634989
0000c0 9a 67 46 40 37 5a 63 40 c3 d2 be bf 37 d3 e4 3f
       3.1000733 3.5523813 -1.4908069 1.7876958
0000d0 39 0e 7c 3f c1 bd 92 3c 93 03 45 3f 0e 67 28 c0
       0.984592 0.017912747 0.7695858 -2.63129
0000e0 1f 2f a4 3f ef 88 c9 be be 00 a7 be 60 58 07 be
       1.282688 -0.39362285 -0.32617754 -0.13217306
0000f0 40 39 1c bf f7 8b 3f 41 e2 05 3e bf df 54 68 3f
       -0.61024857 11.971671 -0.74227726 0.90754503
000100 8f 28 d3 3e 40 e1 4c 40 2a 81 73 3e 4e 47 fb 3e
       0.4124188 3.2012482 0.23779741 0.4907784
000110 f2 b0 e2 be d2 c3 a5 bf eb be ec 3f 6e 2a ab 3f
       -0.44275624 -1.2950385 1.8495764 1.3372324
000120 f2 b0 4c bf ba e7 d9 3f 6e 81 75 bf 13 18 7e c0
       -0.799575 1.7023842 -0.9590062 -3.9702194
000130 fb a5 bc bf c2 fd 35 be f5 aa b4 40 da 52 23 40
       -1.4738153 -0.17772582 5.645869 2.5519319
000140 48 25 17 40 7f 71 8b 40 ce 34 bf bf bd 96 16 40
       2.3616505 4.3576045 -1.493799 2.3529503
000150 b8 d7 bb 3e d9 58 a6 3e f2 ee 0e bf 60 31 40 bf
       0.36688018 0.3248966 -0.5583335 -0.7507534
000160 42 9b 4d 3f b9 89 a3 be d8 fb 0b c0 d5 41 c6 3d
       0.8031503 -0.31941012 -2.1872463 0.09680525
000170 67 65 e6 3f 7a 7a e1 40 4c e7 43 40 98 d7 22 c0
       1.7999696 7.0462008 3.0609922 -2.5444088
000180 b8 b5 86 3f d3 30 57 41 85 b5 bf bf 23 99 cc be
       1.0524206 13.44942 -1.497727 -0.39960584
000190 2e ae a5 c0 d2 b6 96 40 7a 56 61 3f 55 5f 28 c0
       -5.177512 4.709817 0.8802258 -2.6308186
0001a0 18 c1 d8 bd 0e 80 b3 bf aa 64 b5 c0 75 5a 38 40
       -0.10583705 -1.4023454 -5.668538 2.880521
0001b0 8a da a3 be 6c 39 e1 be 76 46 68 c1 c2 ae 8c 40
       -0.3200267 -0.43989122 -14.517202 4.3963327
0001c0 12 d2 d0 bf 73 0e 02 c0 bb 4d 3c c0 7d 52 6d bf
       -1.6314108 -2.032132 -2.9422443 -0.9270399
0001d0 3c ca a7 3f c7 ca 48 3e 3f 80 de 3f 0a fa a2 3f
       1.3108592 0.19608603 1.7382888 1.2732556
0001e0 d0 18 01 c0 66 93 67 3e cb 93 36 3f a0 56 9c 3f
       -2.0171394 0.22614822 0.71319264 1.2213936
0001f0 f4 1b d1 40 b8 f5 6e c1 65 81 4f 3f 10 56 72 3f
       6.5346622 -14.93499 0.81056815 0.9466257
000200 94 2b 76 c0 36 ab 8a bf 7d bd 17 c0 da b2 01 c1
       -3.8464098 -1.08335 -2.3709404 -8.106165
000210 76 99 71 c0 c1 0f b9 c0 d7 0b 9c 3f e1 51 04 c0
       -3.7749915 -5.783173 1.2191113 -2.0674975
000220 49 a0 6b c0 74 c5 b4 bf 12 59 cf 40 65 92 48 41
       -3.681658 -1.4122758 6.479623 12.535741
000230 70 da 68 be b1 c2 fc 3f 91 e5 0f 41 9f 84 a3 40
       -0.22739577 1.9746915 8.9935465 5.109939
000240 76 67 82 3f d2 41 9e bf 9f 39 4b be bf 46 1b c0
       1.0187824 -1.2363837 -0.198462 -2.426193
000250 d5 d6 45 be 0b ac 07 40 73 71 5b c0 e8 51 cc 40
       -0.19320233 2.1198757 -3.4287994 6.3849983
000260 0e 7e ee bd cb da 17 3e 01 2f bf be f9 e3 25 3e
       -0.11645137 0.14829557 -0.3734055 0.16200246
000270 40 88 ad 3f d4 a4 48 41 80 ad d3 40 8e 03 cd 40
       1.3557205 12.540241 6.614929 6.406684
000280 4c a6 2a 40 53 c1 c4 bf c8 07 14 c0 27 20 3f 3f
       2.6664 -1.5371498 -2.312975 0.74658436
000290 a2 f5 43 be 5a 1f fd 3f 7c 9c 89 3f 0a 6f be bf
       -0.1913667 1.9775193 1.075088 -1.4877636
0002a0 e9 04 51 c0 25 63 21 bf 61 62 4d 40 b0 ac 99 bf
       -3.2659247 -0.6304191 3.2091296 -1.2005825
0002b0 51 57 43 c0 e6 d5 96 40 46 b3 34 c1 48 3f 7b bf
       -3.0522044 4.7136106 -11.293768 -0.98143435
0002c0 4d 3a 0a c0 d9 3f 41 c0 19 9d 41 bf 12 ae a8 c0
       -2.1598084 -3.019522 -0.75630337 -5.271249
0002d0 01 f0 85 3e a2 ad cc 3c 62 73 f2 bf ba 28 7a bd
       0.2615967 0.024985138 -1.8941462 -0.061073996
0002e0 0a 19 95 3e ce 54 d5 c0 18 51 fb bf 42 87 be bf
       0.29120666 -6.666602 -1.9634123 -1.4885027
0002f0 f4 08 d0 3f 72 95 06 c1 1b 2d 56 bf d1 bf a1 40
       1.6252732 -8.411486 -0.83662575 5.054665
000300 af 3c 17 c0 99 46 70 c0 b5 95 ec be 22 8c 6d c0
       -2.3630788 -3.754309 -0.46207967 -3.711678
000310 af 63 1f 40 33 4f 92 bf 6e fb 8f 3f b1 83 8d bf
       2.4904592 -1.143042 1.1248605 -1.1055814
000320 98 a5 e9 bf 0d 5c f8 c0 e8 00 e2 40 7b 60 49 41
       -1.825366 -7.7612367 7.0626106 12.586055
000330 b2 7e 6c c0 cb 55 3f 3e 49 11 ba 40 66 ce d3 bf
       -3.6952329 0.18685071 5.81461 -1.6547363
000340 e1 55 9b bf 21 d0 4b 40 b2 8a fa bf 6b 72 b7 3e
       -1.2135583 3.1845782 -1.9573576 0.3582948
000350 dc e6 24 3d a4 a8 67 bf b4 b3 63 bf 8d d9 4d 3f
       0.040259227 -0.904917 -0.8894608 0.8041008
000360 1d de 5a bf a7 ef fe 3c 49 36 8b 3f 26 2f 4b bd
       -0.8549517 0.031120135 1.0875942 -0.04960551
000370 4c 23 d4 bd 00 30 6d 41 90 95 97 40 97 9b 75 bf
       -0.10358295 14.824219 4.737007 -0.95940536
000380 cf 83 68 bf 53 9d ff 40 c2 96 3e c0 da 2e a3 40
       -0.90826124 7.9879546 -2.9779515 5.099469
000390 d5 0e 68 3f ad aa a9 c0 48 6e a3 be e0 92 68 40
       0.9064763 -5.3020844 -0.31920075 3.6339645
0003a0 c7 7c c3 3f c6 28 96 3f 22 b9 b3 c0 00 54 0b c1
       1.5272454 1.1731193 -5.616349 -8.708008
0003b0 d5 3f d2 3f 92 e1 dc 3e a7 d7 17 c2 a2 25 20 c1
       1.642573 0.43140846 -37.960598 -10.009188
0003c0 24 45 73 3f d6 81 ed bf c2 3d a5 40 75 28 47 40
       0.95027375 -1.8555248 5.163789 3.1118443
0003d0 19 5b d8 bf f4 60 00 bf 37 6e ac 3f 8a bc d6 c0
       -1.6902801 -0.5014794 1.3471135 -6.710515
0003e0 d6 89 91 3f 9e 89 35 bf a9 d7 52 3e 55 3c 9c bf
       1.1370189 -0.7091311 0.2059008 -1.2205912
0003f0 68 83 e8 3f 42 68 fe bf 9f 3b 90 bf 1e 09 86 c0
       1.8165102 -1.9875567 -1.1268195 -4.188613

fc2.bias f4 [64]
000000 bf 91 74 3f 28 45 46 be 18 4b 07 3d fc 92 96 3f
       0.9553489 -0.19362319 0.0330306 1.1763606
000010 3d 35 0d 3f 84 a3 b4 be da 4e 76 bf c5 d4 a3 be
       0.5515936 -0.35281003 -0.9621407 -0.31998268
000020 53 f5 1f 3f 8c ec 95 bd 4c 33 9a 3d e1 cd 21 bf
       0.6248371 -0.07320508 0.07529315 -0.6320477
000030 af 5f 34 3e 08 d4 a8 be 4d 42 54 be ad fa 1e 3d
       0.17614625 -0.32974267 -0.20728417 0.03881328
000040 e8 ce 9b be d1 3c e3 3d 5f d2 aa 3e 52 75 bb bd
       -0.30431294 0.11095584 0.33363625 -0.091532364
000050 7d b4 10 3e 54 7a 97 be 69 1a ca bf c0 65 8a 3f
       0.14131351 -0.29585516 -1.578931 1.0812302
000060 a9 c5 06 bf ce f6 8c 3d 11 40 92 bf 0c d5 e8 3e
       -0.52645355 0.06883012 -1.1425802 0.45475042
000070 fc 6d 88 3e 27 d9 ac 3e ff 46 91 3e 4c b9 59 3e
       0.2664641 0.33759424 0.28374478 0.21262091
000080 d9 09 be 3d b0 72 45 3e 90 68 1a 3e 0f 2c e8 be
       0.09279222 0.19282031 0.1507895 -0.45346114
000090 0b 19 0f 3e 45 5d 29 3f f8 27 a5 be 8e b3 11 3f
       0.13974397 0.66157943 -0.32257056 0.56914604
0000a0 be 02 46 bb b1 a3 16 bf af 0d ec be 53 c0 07 3e
       -0.0030214037 -0.58843523 -0.4610419 0.1325696
0000b0 b2 5b 61 bd 88 21 c6 3b 6a c5 b4 be 3b 23 45 bf
       -0.055019088 0.0060464777 -0.35306865 -0.7700688
0000c0 b8 1c aa bd a0 4f 7a bd 48 cf 4c 3f b8 14 85 3f
       -0.08306259 -0.061111093 0.80003786 1.0396948
0000d0 67 4b 4c be 9f 28 db be 6e 72 e8 be bc 40 07 3f
       -0.19950639 -0.4280443 -0.45399803 0.5283315
0000e0 8c 5d 6d bf 3e 67 25 bf 31 2a 41 be 93 d8 0c bf
       -0.92720866 -0.6461066 -0.18863751 -0.55017966
0000f0 9b 1e 83 3f dc 3b 2b bc dd e5 e8 be f7 8e a5 3e
       1.0243715 -0.010451283 -0.45487872 0.32335636

fc3.weight f4 [16, 64]
000000 f4 6f eb 3e 79 ff 3e 40 31 6c 9d 3f ad 6e 69 bf
       0.4598385 2.9843428 1.2298642 -0.911845
000010 af b0 8c bf 9c 27 e1 be 7e f2 96 3e 1f 4b b7 bf
       -1.099142 -0.43975532 0.29481882 -1.43198
000020 17 5f b4 bf 53 ca 41 bf 49 b4 15 bf a0 72 70 3f
       -1.4091519 -0.7569935 -0.5847822 0.93924904
000030 a7 bd b8 3f ff 58 58 bf 19 f0 c0 bf ca 7a 9b bf
       1.4432877 -0.845108 -1.5073272 -1.2146847
000040 e2 de 05 bf 54 56 d2 3f 2e ed 17 3f 37 f0 5d 3e
       -0.5229322 1.6432595 0.5934628 0.21673666
000050 9b 4b da 3f db 59 ce bf cb bc 19 bf 5f 60 91 be
       1.7054323 -1.6121172 -0.600537 -0.28393838
000060 19 02 71 3e 1a ac ea bf b3 22 d2 bf ce 35 8a bf
       0.23535956 -1.8333771 -1.6416839 -1.079767
000070 c6 1c 1f be ae 5c e1 be 29 52 7a 3f ed b7 1f 40
       -0.1553832 -0.4401602 0.97781616 2.495601
000080 fe a9 a2 3e d5 89 d6 3e c2 f3 6e bf b9 50 89 3e
       0.3177032 0.41902032 -0.93340695 0.268194
000090 a1 93 17 c0 d1 4f 1c bf 9b 8e bc be ad 31 d4 be
       -2.3683856 -0.6105929 -0.3682755 -0.4144415
0000a0 5a 9f 9b be 19 55 00 c0 6b 56 87 3f d5 c6 c4 3d
       -0.30395013 -2.005194 1.0573248 0.09608237
0000b0 14 de 4f be 47 26 e2 3f d7 ab 2b 3e 81 84 ab 3f
       -0.2029956 1.7667931 0.1676477 1.3399812
0000c0 50 01 a3 be 95 75 a5 bc d1 c9 9e bf 08 f3 c7 3f
       -0.3183694 -0.020197669 -1.240534 1.5621042
0000d0 d0 1b d5 be 85 5e 4f 3f bc 86 e1 bf da 19 2d bd
       -0.41622782 0.810036 -1.7619243 -0.042260982
0000e0 3c 5e 8a bf d8 2a e0 3d 76 cf 52 be f0 17 aa 3f
       -1.0810008 0.10945672 -0.20586953 1.3288555
0000f0 ee 37 99 be 9e 7f 8f be c4 d5 fb bf 23 12 a6 bd
       -0.29925483 -0.28027052 -1.9674611 -0.08108928
000100 1a 7c 56 bf ca 7e 78 be d7 d1 cb bf 3f 18 80 be
       -0.83783114 -0.24267116 -1.5923413 -0.25018498
000110 91 fc 8f bf 87 f7 ce bf 2c 66 a4 bf b3 c7 aa bf
       -1.1248952 -1.6169289 -1.284368 -1.3342193
000120 98 d4 b9 bf 92 68 ba 3f ae 58 c6 3e bb 3d a1 bf
       -1.4518003 1.4563162 0.38739532 -1.2596964
000130 d7 31 57 c0 e0 07 cd bf 7f c3 2e 3f b3 d1 55 40
       -3.362417 -1.6018028 0.68267053 3.340924
000140 b4 68 b9 3f 18 b5 e3 bd ee e3 08 c0 48 e9 48 40
       1.4485078 -0.11118525 -2.1389117 3.1392384
000150 ae 7f 8c 3f 07 57 9f 3f fd 8b a3 3f d2 ca 98 bf
       1.0976465 1.2448434 1.2777096 -1.1936896
000160 09 11 9c 3f 4e 8d 67 c0 e3 62 95 bf a5 8d 0a 40
       1.2192699 -3.6179996 -1.1670803 2.1648953
000170 ea 7f 7a c0 0b c7 16 3f 11 8d 22 c0 02 c6 77 bf
       -3.9140573 0.58897465 -2.53986 -0.9678651
000180 b2 9e 99 bf fe 22 d7 3e 7d d9 15 c0 0a 39 03 3f
       -1.2001555 0.42018884 -2.3413994 0.5125891
000190 ca 5b 88 c0 f2 99 f2 3f ea 7c c6 3c 7b 1c 92 bd
       -4.2612047 1.895323 0.024229486 -0.071343385
0001a0 00 4f ee bd 23 29 b9 bd 31 d5 9a bf ee a5 a4 bd
       -0.11636162 -0.09041049 -1.2096311 -0.08039461
0001b0 4b d0 f8 bf 75 d1 ff bf f2 29 2a bf 12 62 f8 3e
       -1.9438566 -1.9985796 -0.66470253 0.48512322
0001c0 6a 4a 34 40 69 32 7d bf f4 3b 85 3f 6d e1 0a 3e
       2.8170419 -0.98905045 1.0408921 0.13562556
0001d0 a0 30 59 bf eb f1 fd 3f 6e 09 67 40 04 f6 1c bf
       -0.8483982 1.9839453 3.6099505 -0.6131289
0001e0 a6 2c 03 3f f3 c9 b4 3e 0b 08 38 40 90 08 0d c0
       0.51240003 0.35310325 2.875491 -2.2036476
0001f0 bb b8 55 c0 c2 d7 c2 be 0e dc 32 40 2c 78 b0 c0
       -3.3394 -0.38055235 2.794681 -5.5146694
000200 7a c2 8c bf cc cb b0 bf f1 fd 9b c0 da 6e d2 3f
       -1.099685 -1.3812194 -4.8747487 1.6440079
000210 2f be df bf 8c 4f 7c 40 47 dd fe bf fc 86 a5 40
       -1.7479914 3.9423552 -1.9911278 5.1727276
000220 1c d7 8d c0 4e c0 a7 3f 11 af 24 c0 96 23 8b bf
       -4.4325085 1.3105562 -2.5731852 -1.0870235
000230 f7 5f da 40 03 84 61 3f ea 9c 8c 3e 3e 12 08 3f
       6.8242145 0.8809206 0.27463466 0.53152835
000240 a7 3b 37 bf 13 e2 e3 40 99 70 8a c0 f5 b1 2d c0
       -0.715754 7.121347 -4.326245 -2.7139866
000250 3d 9b 19 bf 53 d8 1f 41 98 48 11 40 b3 f7 e6 be
       -0.600025 9.990314 2.2700558 -0.45110855
000260 60 2b 5e c0 9a e9 88 bf 91 cd 08 bf a6 01 78 40
       -3.4713974 -1.069629 -0.5343867 3.8751006
000270 2d f3 7f bc c6 bd 04 c0 f7 03 8e 3f e6 74 b1 3f
       -0.0156219425 -2.0740829 1.109496 1.38638
000280 3f 79 b2 c0 20 45 59 3f d2 7c 0f c0 1c b7 ed bf
       -5.5773005 0.848711 -2.2419934 -1.8571506
000290 84 2c c3 bd f4 59 f5 bf bb eb 8e bf 3e ed 50 40
       -0.09529975 -1.9168077 -1.1165689 3.26448
0002a0 62 ff 70 c0 58 4e 0c 40 ec 19 be be 98 28 ac c0
       -3.7655873 2.1922817 -0.37129152 -5.3799553
0002b0 84 7c 27 40 55 96 1a c0 13 c9 3f c1 01 ac 22 c0
       2.6169748 -2.4154255 -11.98659 -2.5417483
0002c0 b5 06 57 40 3f 7c e3 be a0 10 d4 3f 50 5f 22 3e
       3.3597844 -0.4443073 1.6567574 0.15856671
0002d0 0e 98 97 bf 4a 16 b3 40 75 73 d9 40 2a 4a 8f 40
       -1.1843278 5.596471 6.795344 4.477803
0002e0 3f b4 11 41 d9 c3 32 bf 48 40 0e 3f ce 38 ea c0
       9.106505 -0.6983009 0.55566835 -7.319434
0002f0 42 4a 5b c1 9f b2 0d c0 6c 89 b1 3f a8 74 c9 3f
       -13.705629 -2.2140272 1.3870063 1.5738726
000300 99 9a 45 bf 75 3e b1 3f bd 2a 61 bf 2d 2c 17 3f
       -0.7718902 1.3847185 -0.8795584 0.5905178
000310 e5 4c 59 bf 11 35 af bf 31 1d f2 3f 28 6b 16 3f
       -0.84882957 -1.368807 1.8915159 0.5875726
000320 90 80 7a bf de 6c 9c bf 59 63 ff 3e 79 b4 97 3f
       -0.9785242 -1.2220724 0.49880484 1.1851951
000330 e4 4e 17 c0 9f f4 be 3e a8 98 4b bf 60 f3 d2 3e
       -2.36419 0.37296006 -0.7952981 0.41201305
000340 ad 03 47 bf 6f 12 c7 3f 90 24 04 3f f6 a4 ad bf
       -0.77739984 1.55525 0.5161829 -1.3565967
000350 d9 83 b2 3e 6b 9e 8a bf d4 2c ec bf 9b 3b 3b bf
       0.34866217 -1.0829595 -1.845118 -0.73137826
000360 ac 7a 58 bf 6b 5a 11 bf 88 97 43 bf 89 67 00 c0
       -0.8456218 -0.5677859 -0.76403093 -2.0063193
000370 b8 5b 5a 3e 10 fd c9 3e 6f 2d 80 3f c4 9e d7 3e
       0.2132405 0.39450884 1.0013865 0.42113316
000380 d4 fe 44 3f 16 58 4a 3f 2e a2 6d 3f fb 29 1e 3f
       0.76951337 0.7904066 0.9282559 0.6178281
000390 fa 2d 46 bf 30 d7 7f bf ef 97 21 bf 4e c3 c8 bf
       -0.77413905 -0.99937725 -0.6312246 -1.5684602
0003a0 8a c4 19 bf 92 0e fe bf 4c ec c8 3f 57 1a a8 be
       -0.6006552 -1.9848197 1.5697112 -0.32832596
0003b0 9e c3 4a 3e 79 8c 07 3f 5f 9e e6 3e 31 3f 10 3f
       0.19801185 0.5294872 0.45042703 0.5634642
0003c0 d1 67 af 3e 59 c2 b3 bf 95 4f d4 be 61 81 d3 3e
       0.34258893 -1.4043685 -0.41466966 0.41309646
0003d0 9b f8 87 bf 5a 58 92 3f c4 d9 ef bf fb 4f ba 3f
       -1.0622743 1.1433213 -1.8738332 1.4555658
0003e0 02 b0 86 bf b0 2d 99 3f 7f cb f2 3e 09 ff 96 3e
       -1.0522463 1.1967068 0.4742088 0.2949145
0003f0 2d c4 24 3f 7e 53 c0 be e6 fc a9 bf 67 7d 60 3f
       0.6436184 -0.375637 -1.3280303 0.8769135

fc3.bias f4 [16]
000000 e2 84 5d 3f 62 66 dc 3d 4d f7 93 c0 13 09 70 40
       0.8653089 0.107617155 -4.623938 3.7505538
000010 80 f0 79 40 9c ea 68 bf 70 ba f9 3e 4e 3b 3d 40
       3.905304 -0.90982985 0.48775053 2.9567447
000020 f7 74 85 be fa 6a d5 3e 98 58 ad bd 72 fa eb 3e
       -0.260658 0.4168318 -0.084641635 0.46089512
000030 91 08 88 3f 63 61 fc 3f 1e 69 17 c0 58 c6 9e 3f
       1.0627614 1.971722 -2.3657908 1.240428

fc4.weight f4 [1, 16]
000000 c8 40 b5 3e 17 70 b2 3e f6 61 a1 bd 34 6a 0d 3f
       0.35400987 0.34851143 -0.07880013 0.5524018
000010 14 e7 cb be 1c 02 00 be 17 26 c4 3d de 58 e7 3e
       -0.39824736 -0.12500805 0.095775776 0.45184988
000020 cc 16 ce be e9 82 37 3e de 9a c5 3e e1 06 86 be
       -0.40251768 0.17921032 0.38594717 -0.26177123
000030 c1 50 96 be 95 38 ce be 7d 52 88 3d da 08 96 3e
       -0.29358485 -0.40277544 0.066563584 0.29303628
