euler_model_2.pt (torch, 234895 bytes, 7 tensors)

fc1.weight f4 [12, 9]
00000000: 8256 2cbf 943b 213f d77f 823e 7934 66be
00000010: ee2c 86bd 2126 873e aae3 cabe dafa d4bc
00000020: e82b 0140 0ae0 1c3f e4a3 263f 1de7 3d3e
00000030: 5fb3 6e3e 7d80 7b3f ba2b 463e ce4c c33b
00000040: 6b67 eb3e 0d54 20c0 d07c 043e 9bf0 39bf
00000050: eced 873e e4ef e03e dd0c c1be 84b6 9a3e
00000060: 3c83 f93e 5f7f 4bbd f7cd 763f 0e32 5e3e
00000070: 4caa 6ebe 5069 32be e56f 613f 33f1 f0be
00000080: 658a 383e 5a8a 4b3f 27ae babe a191 edbf
00000090: 4490 213f d95a 99bd ae42 a8be 5da4 1cbf
000000a0: cf71 c1be fdea 1bbf 97c1 cfbe d4b0 a13c
000000b0: 265c 30bf a5a8 02bf eaa6 713f 0ae5 b5be
000000c0: 62a1 a03e 52d6 3dbe d249 12bf 60aa 293d
000000d0: 462b a13d 3a94 9abf a558 023e 2848 523a
000000e0: e297 6f3e 136c 3b3f 10ae 973e e55e 993e
000000f0: e3ee ca3e 3e86 143e b57c 94bf f0a1 853d
00000100: 7d83 493e 60ae 82be 2f05 8c3e a532 a0bf
00000110: 2a58 0b3e c96a 153d 9ded a0bf de8d 3fc0
00000120: 51d5 5e3f 2775 e13d daa7 19bf da51 353c
00000130: 3050 733d d525 a8be 85f0 19bf 5c69 07be
00000140: 72a4 93bf 20f2 4fbf 18ae a3bc ea18 68bf
00000150: d8d8 f23d 7d74 213f cfaf 09bf e5ba c33c
00000160: 1338 cb3e f803 fbbf 6bdd bd3e c372 31bf
00000170: 1ba1 893e 7036 62be 5287 72be 365f ef3e
00000180: d7b8 4ebe 9481 36bc f696 643f 9ac2 35bf
00000190: 24f4 5f3e e9ff d43e 6d67 d4be f396 bb3d
000001a0: d491 033f 92cb fdbd 280f 0e3e 90f5 ad3e
-0.673195 0.62981534 0.2548816 -0.22480954 -0.065515384 0.26396278 -0.3962682 -0.025998522
2.0183048 0.61279356 0.6509383 0.18545194 0.23310612 0.9824293 0.19352618 0.0059600836
0.4597734 -2.50513 0.12938237 -0.7263276 0.26548707 0.43933022 -0.37705126 0.30217373
0.48732936 -0.049682017 0.9640803 0.21698782 -0.2330715 -0.17422986 0.8806136 -0.4705902
0.18021543 0.7950798 -0.36460993 -1.8560067 0.63110757 -0.07488031 -0.32863373 -0.611883
-0.37782142 -0.6090544 -0.40577385 0.019737639 -0.6889061 -0.5103858 0.94395316 -0.35526305
0.31373125 -0.18538788 -0.5714389 0.041422248 0.07869582 -1.2076485 0.12729128 0.00080216164
0.23397782 0.73211783 0.29624987 0.2995521 0.3963538 0.14504334 -1.1600558 0.06525028
0.19679065 -0.25523663 0.27347705 -1.2515455 0.1360785 0.03647879 -1.2572514 -2.993034
0.87044245 0.11008673 -0.60021746 0.011066878 0.059402645 -0.32841364 -0.6013263 -0.13223785
-1.153456 -0.8122883 -0.019980475 -0.90663016 0.11857766 0.6306837 -0.5378389 0.02389283
0.3969122 -1.9610586 0.3708299 -0.6931574 0.26880726 -0.22091079 -0.23684433 0.46752328
-0.20187698 -0.011139292 0.8929285 -0.71000063 0.21870476 0.41601494 -0.41485158 0.09159651
0.5139439 -0.123923436 0.13872969 0.33976412

fc1.bias f4 [12]
00000000: 5fd1 183e 79c3 f5bd 9790 6dbe 26c4 9c3e
00000010: 1323 b63e 1162 773e bcb5 043f 4cd8 033f
00000020: 37b8 51bb 9797 9c3e 8a68 943c 9ef7 513e
0.14923619 -0.12000174 -0.23199688 0.306184 0.35573635 0.24158503 0.51839805 0.5150192
-0.003200067 0.30584404 0.018116254 0.20504615

fc2.weight f4 [2000, 12]
00000000: 6afe d5bf ba50 153f 1e6b 803f 7b8a b53d
00000010: 9123 d23d eea1 afbf fc92 ac3d 7dd1 a3bf
00000020: ef0e d3bc ea11 9abf 2cc4 813f 661e 29be
00000030: 75fe 493e 682c cabf 59d2 cb3e b0e9 4dbf
00000040: e1bc 56be b242 59be b37c 4c3d 7e83 c9bc
00000050: 97df f4bd e818 c3bd 09a9 813e 8dc7 d03e
00000060: b4f3 5f3f efe9 e63e 18c6 27c0 a733 14c0
00000070: 7e0c 3840 4e6e f8bf 32e6 e8bd 94d6 8cc0
00000080: 0532 6d3f dd27 9340 837b 433e a310 3240
00000090: d789 0a3e 0b7c 483e 9eeb 88be bc91 013f
000000a0: 474b df3d 5622 723e 97c3 da3e 214a 953d
000000b0: ac79 863e dc69 0a3f 1077 4cbc e3b2 9dbe
000000c0: 1466 40bf ac9a cb3e db1f 41bf ebc2 003e
000000d0: 7b76 e03e 47cc 8dbe da45 cf3e 355b 54be
000000e0: a078 2c3f 5e72 3f3f c0ed 3f3e 748e 9abe
000000f0: 69b1 cb3d 01ad 563e 7586 4dbf 8ab0 873e
00000100: 518c 3a3e 6fdd 2e3f 8ca2 f23d 1b6c d33e
00000110: 8a77 f83e dffd dd3e 5f7c 04bf d547 c6bd
00000120: 4232 8dbc 7612 cd3c e640 eebe fb87 c33e
00000130: 62b7 4a3e 65bd bb3e c7df 123f 7f36 fb3e
00000140: a436 58bd c113 573e 4948 c0bd 3104 03bf
00000150: f4d8 30bf 140d ed3e 4248 19bf 7ff3 adbd
00000160: f8ad e23e f14e c7be b3a1 fd3e 4535 9a3d
00000170: 523c e03e 0aed 7a3f cdef d93d 0bec 903e
00000180: 1f4e 173f aff1 14be 631f 2fbf 3219 15bd
00000190: 0d9c ca3e ee6e 573f 0471 813e c95f 023d
000001a0: 656b 253f 1898 e53e 9caf 3fbf c072 0dbe
000001b0: 6119 2fbf 3890 8f3e c0b0 f3be 5434 65be
000001c0: 192c 8e3e c85f 9a3e 1247 933c b445 3dbe
000001d0: 6c42 053f 8bd1 773f 6201 bd3d 8a11 8fbe
000001e0: e3a5 2fbe 53aa 463d dc20 eabe 557a 403e
000001f0: 6fd6 533d aa92 6b3f 687d 783e ffa4 8a3e
00000200: 4cbe b3bc 7883 703e 07ba b3be 268f 48bf
00000210: d0c9 c5be 3ff6 433e ca00 46be 83aa bfbd
00000220: 29df c23e 4f87 973e 8fcd 6ebe fb28 eabe
00000230: 7eea 9a3e 5332 753f c16a 6fbe 86ca 02be
00000240: e9a0 c03d f28a 0e3e 8930 46bf ba0c f93e
00000250: e3ad 8e3e 2548 033e 38db 073f 1807 6d3e
00000260: 8d9e 143f 9791 333e 9e46 d73d 94bc 7fbe
00000270: 2223 efbd 5570 8f3e 6ba7 78be 944e cf3e
00000280: 74de bc3d db16 a33e b1b0 823e 76f6 2d3e
00000290: 148e de3e eef8 0e3f 22b7 92be d0e5 66be
000002a0: 1e1d 7bbe 17ae 403d 19a1 2dbf 89a6 9f3d
000002b0: 12d6 523d fafa b13e 7cc1 ff3d 319f c23e
000002c0: 2f05 b43e f252 4a3f 7426 99be dbcc 89be
000002d0: 9783 3dbd 4d75 7ebe 7fd4 b9be 98a1 bf3e
000002e0: 31d1 983e 12bc 263f 99a5 64be 7c7d 743d
000002f0: 0b24 cc3d ceff 213f 936c 1dbf 35fa b33d
00000300: d533 63bf b45a 69be 8af7 09bf 621c 34be
00000310: a94b 623f a09b 003f 6283 46ba 189e 9cbe
00000320: a390 703f 6705 843e 60d0 85be 972c 58bf
00000330: 1866 95bf fa21 0f3f 16db 07be 9f43 d13e
00000340: e475 313f a0fb 8d3e 7c79 0e3f 70fa 713d
00000350: 6e49 7d3e 7c91 e1bd 13b2 1dbf 2dea dfbe
00000360: 4dd5 eebf 33d8 433f 6c26 8e3f ab4d 6c3e
00000370: 6e44 623f 831a c5bf 9334 9cbe 41d4 0dc0
00000380: 1ac7 9d3f e4c2 0ac0 c7d3 af3f 2fe9 bebf
00000390: 666a dabe 3bd7 643e 6304 b0be f1a2 14be
000003a0: d0d9 bc3d 06ba ca3e 2331 f93d d28a dd3d
000003b0: 928c 8b3e a600 6e3f 3951 25bd 926a a1be
000003c0: fe6f 783f bbe9 aebe 4633 1c3e 6567 91be
000003d0: 0cfe 4ebf 399b ad3e 8243 503e 6d1e 3fbe
000003e0: b1e1 39bf 463e 9c3e 403c 23bb 2441 8a3f
000003f0: eeb9 b7bd 33e4 8cbe 0c47 14bd fbf1 b0bd
-1.6718266 0.58326304 1.003269 0.08864304 0.1026069 -1.3721292 0.084264725 -1.2798306
-0.025763957 -1.2036717 1.0137992 -0.16515502 0.19725974 -1.5794802 0.3980892 -0.80434704
-0.20970489 -0.21216848 0.04992361 -0.024598833 -0.11956709 -0.09526235 0.25324276 0.40777245
0.87481236 0.45100352 -2.6214657 -2.3156526 2.8757625 -1.9408662 -0.11372031 -4.4011936
0.9265445 4.598616 0.19090085 2.7822654 0.13529144 0.19578569 -0.26742262 0.50613
0.1090303 0.2364591 0.42727348 0.072895296 0.26264703 0.5406778 -0.012479559 -0.30800542
-0.7515576 0.39766443 -0.7543923 0.12574355 0.43840393 -0.27694914 0.4048298 -0.20737918
0.6737156 0.74783885 0.18743038 -0.30186808 0.09945948 0.20964433 -0.8028329 0.26501876
0.18217589 0.6830663 0.118474096 0.41293415 0.485287 0.4335775 -0.51752275 -0.096816696
-0.017235879 0.025033217 -0.4653389 0.38189682 0.19796517 0.36667934 0.5737271 0.49065015
-0.052786484 0.2100363 -0.09388787 -0.5117827 -0.69081044 0.4629904 -0.5987588 -0.08493709
0.44273353 -0.38927415 0.4953743 0.075296916 0.4379602 0.9801794 0.106414415 0.28305086
0.5910358 -0.1454532 -0.6840727 -0.03640098 0.39572182 0.8415364 0.25281537 0.03182963
0.64616996 0.448426 -0.74877334 -0.13813305 -0.683981 0.28039718 -0.47595787 -0.22383243
0.2776802 0.301512 0.017978225 -0.18483621 0.52054477 0.9680411 0.092287794 -0.2794307
-0.17153125 0.048502278 -0.45728195 0.18796666 0.05171817 0.92020667 0.24266589 0.27079007
-0.021941327 0.23487651 -0.35102865 -0.7834343 -0.38630533 0.19136904 -0.19336239 -0.093586944
0.38060883 0.2959542 -0.23320602 -0.4573439 0.30257028 0.95779914 -0.23380567 -0.12772569
0.09405691 0.13920191 -0.7741781 0.48642522 0.2786704 0.1282049 0.53068876 0.23147237
0.5805443 0.17536007 0.10511516 -0.2497428 -0.11676623 0.2801539 -0.24282615 0.40489638
0.09222117 0.31853375 0.2552543 0.16988549 0.43467772 0.55848587 -0.28655344 -0.22548604
-0.24522826 0.047041025 -0.6782394 0.07795436 0.051473685 0.34761792 0.12488076 0.38012078
0.35160205 0.79032815 -0.2991215 -0.26914105 -0.046268072 -0.24849434 -0.36294934 0.37427974
0.298471 0.6513072 -0.22328795 0.059689984 0.09967812 0.6328095 -0.61493796 0.087879576
-0.88750964 -0.22788507 -0.5389334 -0.17588952 0.883967 0.50237465 -0.0007572678 -0.30589366
0.939707 0.25785372 -0.2613554 -0.8444304 -1.1671782 0.5591122 -0.13267168 0.40871903
0.6932051 0.27731037 0.5565412 0.059076726 0.24735042 -0.11014077 -0.61599845 -0.4373335
-1.8658844 0.7650177 1.1105475 0.23076503 0.88385665 -1.5398716 -0.3050886 -2.21608
1.2326386 -2.1681452 1.3736504 -1.4914912 -0.426593 0.22347729 -0.34378347 -0.14515282
0.09221232 0.3959505 0.12167575 0.108174935 0.27255684 0.9296974 -0.040360663 -0.3152662
0.97045887 -0.34162697 0.15253934 -0.28399196 -0.80856395 0.33907488 0.20338252 -0.1866395
-0.7261 0.3051626 -0.0024907738 1.0801129 -0.0897101 -0.27517852 -0.036200568 -0.08639904

fc2.bias f4 [2000]
00000000: f31b c0be 524a a5bd 1e7b 2dbe 1480 d03e
00000010: 682c e03e 1c24 51be 83b7 aa3e 38de 3c3e
00000020: cce6 b13e e93d b43d 9523 143e 6148 713e
00000030: f08e cc3e d2b6 f33e 5593 293e 9362 193e
00000040: b19d 873c a741 663e 8c7b 49bf 7304 9b3e
00000050: 5754 423f f47d 62be 70a3 4c3e 8fdc b7be
00000060: 756c 233f 013f 77bf 96da 273f 736f 663b
00000070: 6827 8ebe 4213 00be c40a 94bd f3de c83d
00000080: a4cb 8fbe b254 e13e feab c43e a45c 6d3e
00000090: cb36 873e 154c cf3e cb0d 863e c746 933d
000000a0: ea42 a13e 9e50 f93e f641 6b3d 4bad be3d
000000b0: d48f e23e 52fe 43be 33f3 ca3e b0ca 15bf
000000c0: 2cf3 8e3e 2b8c 99bd e79b c63e a5cd 103e
000000d0: 5e59 c23e 57ce 193e 9566 843e cd23 2dbe
000000e0: 98de a53e 3e8d 743d e0d5 003f ea71 9b3f
000000f0: f88f c23e eeea 493e 63c9 86be cee9 c33e
00000100: ea6e 02bf 3931 013f 4185 24bf 8989 6f3f
00000110: 8208 44be 6247 f83e 97a8 47bf df21 973e
00000120: fb58 93be 37ca 9bbd 9fb3 393e 41ad c7bd
00000130: 2d1b 51be fecf ce3e a414 8d3e 2ead 2cbf
00000140: b5a1 7cbc 9e83 82bd 105f e83c 76a0 c33e
00000150: e2ef 423d e262 2bbd e32c d33e a0de e63d
00000160: cf9a fe3e 07ec 9f3e d7b9 8f3e 8ed6 1fbd
00000170: c92c 903e f0b3 7ebe 5bfa 0c3f 202e 893e
00000180: f17b 31be f307 c5bd f793 b63e 97e9 c6be
00000190: ba3d abbe c088 d73d da8f d73e 869b 043f
000001a0: 475f eb3e 4e65 fbbd a467 bb3e 633a cabd
000001b0: bacf 233f 5310 e93e b468 3fbf 742b 1a3f
000001c0: 7449 273f f899 61be 93fc 87be b8df 24be
000001d0: 70c1 47be 63b8 bbbd 6392 f53e af49 e53e
000001e0: 21bb 42be 0893 b63b 346c ab3e f79b f03e
000001f0: b4b3 fa3e 6652 7a3e 4388 4abf 23ac ad3d
00000200: 44ea 903e 0d6d 4fbe 653d a43e a7aa 42be
00000210: 6d8d 12be c74e 413e 9129 243e c7cd da3e
00000220: f10f 523d 2506 c03d 8029 ba3e 4c3a 01be
00000230: d4a2 e73e 7d38 cd3d 1783 2b3e e22a 25bf
00000240: 5d03 6ebe a59d 563f b7f1 bdbe ea4b 363f
00000250: 12d2 10be 0836 afbe 92c0 7e3e 2add 6a3e
00000260: 9e83 7ebe 7f0d cf3e 277d ed3d 7f3f febd
00000270: 9129 1f3f f628 83bc 5850 803d 5f88 053f
00000280: 3192 bbbb f702 05bf 66e6 0a3e 23b6 263f
00000290: 10cb 98be ca46 833e 668a 3a3c 00ad 02bf
000002a0: 80b5 21bc 43ae a03e 4294 a73e 8505 b63e
000002b0: cf39 6a3e a0cc 1b3f b1b5 18be 18a3 47bf
000002c0: 8a25 17bf 5b41 0dbf 2713 623e 3fd0 19be
000002d0: 29e5 c43d 0095 033f ece2 793e 8543 213f
000002e0: a1c4 46bf 86d1 6f3e 0729 5e3e 73e1 90be
000002f0: 0b16 b7be be13 84be 9a39 003e 69c8 a23e
00000300: be7f 41bf 0982 be3e 9af1 e73d 0078 5dbf
00000310: b080 c73e e60a 0b3e 1c9c 8cbe 9f74 c33e
00000320: c542 bf3e 29fd 2fbf b729 233f e8e7 533d
00000330: 56be 993e 1dc7 03bb 215e 983e 6fe4 a93e
00000340: 0900 ec3e e2d4 0f3f cbfe b1bd e9d9 d33e
00000350: 3cdf 0c3f 9fe4 c53e a388 893e c9fc 8fbe
00000360: c293 d3bc 4fe9 883e 7c39 a13e 8b5e 3dbc
00000370: 6be9 06bd ee11 953e 5479 f83d 6dfe d93e
00000380: ac0b ec3e c75a 573d 97ad cc3e 596e 973e
00000390: 4ed9 2e3e b194 8f3e fc02 9f3d ca00 1d3f
000003a0: c0e0 f43e 0ae6 dc3e 14f5 0d3f 919f dfbd
000003b0: ac41 46be 025e d2bd 0269 f83e 9c7d 193f
000003c0: 10a4 8e3e efea cd3d ae80 c63e 3cd7 783e
000003d0: 39cb a83e 15a5 78be 5020 db3e 61a5 c23d
000003e0: 432a 393f 4d64 983d d308 ab3d 38c1 a03d
000003f0: f5c2 183f e486 c9bf b3d8 923d bb89 f1bd
-0.37521324 -0.08070816 -0.16941497 0.40722716 0.4378388 -0.20423931 0.33343133 0.18444145
0.34746397 0.08800871 0.14466698 0.23562767 0.39952803 0.47600418 0.16560109 0.1497901
0.016554685 0.22485982 -0.7870414 0.30276832 0.7590994 -0.2211836 0.19984221 -0.3591046
0.6383737 -0.9658051 0.6556791 0.0035161644 -0.2776444 -0.12507346 -0.07228616 0.09808149
-0.28085053 0.4400993 0.3841247 0.23179871 0.2640899 0.40487733 0.26182398 0.07191234
0.31496364 0.4869432 0.057435952 0.09310397 0.44250357 -0.19139984 0.3963867 -0.585124
0.279199 -0.07497438 0.3879082 0.14140947 0.37958807 0.15020119 0.25859514 -0.16908188
0.32396388 0.05970501 0.5032635 1.2144139 0.38000464 0.19718525 -0.2632552 0.38264316
-0.5095049 0.5046573 -0.6426583 0.93569237 -0.1914387 0.4849196 -0.7799162 0.2951803
-0.28778824 -0.07606929 0.18134926 -0.097498424 -0.20420523 0.4039306 0.2755481 -0.6745175
-0.015419413 -0.0637276 0.028365642 0.3820836 0.04759205 -0.04184235 0.41245183 0.11272931
0.49727485 0.31234762 0.28071472 -0.039022975 0.28159168 -0.24873328 0.5506951 0.26793003
-0.17332436 -0.09620657 0.35659763 -0.3885009 -0.3344553 0.1052413 0.42101938 0.5179981
0.45971128 -0.12275182 0.3660251 -0.09874418 0.6398884 0.45520267 -0.7476914 0.60222554
0.65346456 -0.2203139 -0.26559886 -0.16100967 -0.19507384 -0.09166028 0.47963247 0.4478278
-0.19016697 0.0055717267 0.3348099 0.46993992 0.48965228 0.24445495 -0.7911417 0.08480098
0.2830373 -0.20256443 0.3207809 -0.19010411 -0.14311762 0.18877707 0.16031481 0.4273512
0.051284734 0.09376172 0.36359787 -0.12619895 0.45241416 0.1002054 0.16749226 -0.6451856
-0.2324347 0.83834296 -0.37098476 0.71209586 -0.14142635 -0.3422091 0.24878147 0.2293593
-0.24854895 0.40439984 0.115961365 -0.12414455 0.621728 -0.016010743 0.06265324 0.5216121
-0.0057242145 -0.5195765 0.13564453 0.6512167 -0.29842424 0.25639945 0.011385536 -0.5104523
-0.009869933 0.3138295 0.327303 0.35551086 0.22873615 0.6085911 -0.1491306 -0.77983236
-0.59041655 -0.5517785 0.22077619 -0.15020846 0.09614021 0.5139923 0.2440297 0.6299365
-0.7764378 0.2341977 0.21695338 -0.28297004 -0.35759005 -0.25796312 0.12521973 0.31793526
-0.75585544 0.37208584 0.11325379 -0.8651123 0.38965368 0.13578376 -0.27462852 0.38174912
0.3735563 -0.68745667 0.63735527 0.051734835 0.30028027 -0.0020107694 0.29759315 0.33182094
0.46093777 0.5618421 -0.08691176 0.4137719 0.5502813 0.38650987 0.26862058 -0.28122547
-0.025827292 0.267405 0.3148917 -0.011558185 -0.03293745 0.29115242 0.121325165 0.42576924
0.46102655 0.052576806 0.3997619 0.29576376 0.17075083 0.2804313 0.07764241 0.6132933
0.4782772 0.43144256 0.55452085 -0.10919107 -0.1936099 -0.10271837 0.48517615 0.5995729
0.27859545 0.10054576 0.3877005 0.24300855 0.32967547 -0.24281724 0.4279809 0.095042
0.7233011 0.07441006 0.083512925 0.078493536 0.5967248 -1.574429 0.07170238 -0.11793848

fc3.weight f4 [16, 2000]
00000000: ce61 60bb f757 34bb 3783 e2bb 5119 6fba
00000010: 624b 07bd edc3 fbbc d7c6 3abb 6f6a e6bc
00000020: cca3 57bc de33 afbc 5774 a6bc e429 d93a
00000030: c3fd 65bc c786 753b 527a 5cbb 02b5 13bd
00000040: 1fb9 0cbc f56b 9dbc a39d ad3c 7f57 00bd
00000050: 7bc3 aabd e0d5 aabc 42d4 09bc 361c d73c
00000060: 99cd 02bd c137 febb e0da 27bc 4fc4 0fbd
00000070: 80b9 2bbb d540 adbc 79b8 093c 621f 923a
00000080: aed0 f23b f6f2 21bc 5344 dc3b 4157 20bc
00000090: 1850 3fbc 6777 0bbd b208 2ebc 87b2 af3c
000000a0: 3ed0 c0bc f5e8 01bd 9d89 ccbd 2383 c8bb
000000b0: 74bd 83bc 94c1 933c 30f6 b2bc 1256 793c
000000c0: 22a1 11bc 7617 b2bc 8244 113b 1b58 aabb
000000d0: c5ef c5bc efdf 37bc f249 1abc 24ad 353a
000000e0: 2432 d3bb 8645 9bbb d469 fabc fa42 e43d
000000f0: 3be6 edbc d926 b9bb ca64 163c e848 7a3b
00000100: 5111 78bc 69a3 cc3b d1f4 b93b 04c4 b6bd
00000110: 487b 5e3c 013a 973b be84 7ebc 3d35 0bbd
00000120: 82c5 b23a c7d0 753c f3b5 2ebb fc26 a2bb
00000130: 7842 683c 1884 70bc d925 8bbb c338 b9bb
00000140: ac44 bd3a b540 113c 3466 ab3c f8a9 e1bc
00000150: 3b19 c43b 4264 03bd bb60 dcbc d8ca c6bc
00000160: 77af 073c 0bc2 83bc feed 6abc dd3e 6e3b
00000170: 7cf8 78bc a6da b1bc 2f0c e8bd a3ce bebb
00000180: 03aa a93a 58b8 773c 0dcf 22bb 0294 04bc
00000190: eced 963c c187 2cbb 95c9 9abd c85b 93bc
000001a0: c4f8 863b aa46 e8bb 7669 e1bb bd07 08bd
000001b0: de97 52bd c37f 8cbc 3a82 7b3c bbef b5bd
000001c0: cd75 c9bc e7e7 60bc dea5 c03b c6ca 043d
000001d0: 2c95 943c 91c2 e7bb c650 06bd eff7 b6bc
000001e0: ae90 7fbc 2dc6 173c 2f6a 20bc 22e2 dc3b
000001f0: 5e31 ecbb 7546 bdbc 8eae 64bc bf22 4cbc
00000200: 0744 d9bc 64c5 863c 03ec f2bc 3add 0abd
00000210: f9c1 11bd 0ec4 dbbb 211d 153c c286 9f3b
00000220: 61d6 cabc 61c4 78bb 2ca0 95bc 4626 a9bc
00000230: 5a18 abbc ec7b 92bc 8359 1f3c 35aa 78bc
00000240: 3965 edbb 4ae1 85bd 4982 31bc 47bc d9bc
00000250: a0fb d9bc 0978 933c 5673 cbbb c7cb adbc
00000260: 25ad 1cbc f19c 623b ecdb f1bc f37b 14bd
00000270: 1aa9 febc d8dd d5bc 520e 6239 f547 d1bd
00000280: 88b1 86bc 8f87 13bc 1b81 8bbb f794 aebc
00000290: b309 d83b e364 fdbc 7d3e 30b9 967f 7dbc
000002a0: 918b 4c3c eab6 98bc 417c 563a 5cc1 cabb
000002b0: bd8a 2f3b b333 aebd 2484 0fbd fdbe a0bd
000002c0: b9e8 abbc 15ed 59bc 3f91 d7bc 73cf 03bd
000002d0: e1fb f4b9 1375 243c c669 11bc 918b 9cbc
000002e0: 7daa e7bd 64dc 51bc 7413 1dbc 8741 c23b
000002f0: cc16 633c ac0d 0cbc 5742 fbbc fb82 14bd
00000300: af9e 573c 094c 46bc 0306 b3bc 73e2 973d
00000310: ddac 4fbc a620 24bd 5009 bc3b ec27 e43a
00000320: 688e 19bc d6c1 a23c ce07 d5bc be14 9cbc
00000330: 0ede 85bc 4302 1abb 30f4 a9bc b20e 98bc
00000340: ba57 24bc c1ad 9ebc be82 bdbc 7deb a0bd
00000350: 5d8f dabb e36b ebbc da3c 95bc 84d1 06bd
00000360: 1fac e1bb 53d8 aabc cede a13b d34f 1dbc
00000370: 4085 853c 8244 bebb ff12 06bd b6c6 94ba
00000380: 3266 c83b 1374 a2bc b422 fd38 0520 79bc
00000390: 8d5d 80ba 50dd 55bb bc8a a7bc 85c3 dabc
000003a0: b8f6 0fbd 14a3 6fbb 083d b7bc 5d27 fcbc
000003b0: cf43 303c 1c62 7abb c64e d0bc f70e bf3b
000003c0: f449 e4bc e85f 12bd e5ee b3bc 73fd 0537
000003d0: 46d6 02bd ee57 b53c 9519 f63b 95b8 07bd
000003e0: 184f b2bd afe6 88bc 4787 04bd bba6 163b
000003f0: 3eaa 9abd 5792 333a 4fd9 b0bc 7383 c63c
-0.0034237984 -0.0027518251 -0.0069126147 -0.0009120899 -0.033030875 -0.030733073 -0.0028499865 -0.028126923
-0.013161611 -0.021387037 -0.020319147 0.001656827 -0.014037552 0.0037464367 -0.0033642245 -0.036061294
-0.008589058 -0.019216517 0.021193331 -0.031333443 -0.08338066 -0.020853937 -0.008412423 0.02625857
-0.031934354 -0.007758111 -0.010245055 -0.035099324 -0.0026203096 -0.021149078 0.008405798 0.0011148269
0.0074101305 -0.009884587 0.006722012 -0.009786428 -0.011676811 -0.034049418 -0.01062219 0.021447433
-0.023536798 -0.031716306 -0.09987185 -0.0061191483 -0.01608155 0.018036641 -0.021845907 0.015218275
-0.008888515 -0.021739703 0.0022166078 -0.0051984913 -0.024162183 -0.0112228235 -0.009417044 0.0006930402
-0.006445186 -0.0047385124 -0.03056804 0.11145587 -0.029040447 -0.005650383 0.009179303 0.0038190428
-0.015140847 0.006245066 0.0056749363 -0.08924106 0.013579197 0.004615069 -0.015534578 -0.03398632
0.0013639184 0.01500339 -0.0026658743 -0.004948495 0.014176004 -0.014679931 -0.004246455 -0.0056525185
0.0014440021 0.008865525 0.020922758 -0.027546868 0.005984453 -0.032078035 -0.026901593 -0.024266645
0.00828158 -0.016083738 -0.014338968 0.0036353387 -0.015195962 -0.021710705 -0.11330449 -0.005822973
0.0012944344 0.015119635 -0.002484265 -0.008091928 0.018423997 -0.0026326033 -0.0755798 -0.0179881
0.0041190106 -0.007088502 -0.006879027 -0.033210505 -0.051414363 -0.017150765 0.015350873 -0.088836156
-0.024592305 -0.013727165 0.005879148 0.032419942 0.018137537 -0.0070727547 -0.032791875 -0.02233502
-0.015598459 0.009263557 -0.009790941 0.0067408243 -0.0072080335 -0.023104886 -0.013957633 -0.012459456
-0.026521696 0.016451545 -0.029653555 -0.033902384 -0.035585377 -0.006706721 0.009101183 0.0048683593
-0.024760427 -0.0037958848 -0.018264852 -0.020648133 -0.020885635 -0.017881356 0.009725931 -0.015177299
-0.0072447327 -0.06537111 -0.010834285 -0.026579035 -0.026609242 0.018001573 -0.0062088175 -0.021215333
-0.009562765 0.0034578408 -0.029523812 -0.03625102 -0.031086493 -0.02610676 0.00021558374 -0.10218803
-0.016442075 -0.009004488 -0.004257334 -0.021311266 0.006592953 -0.030931896 -0.00016807947 -0.015472313
0.012484447 -0.018641908 0.00081819674 -0.006187601 0.0026785575 -0.085059546 -0.03503813 -0.07848928
-0.020984994 -0.013301154 -0.026314376 -0.03218026 -0.0004672697 0.010037678 -0.008875316 -0.01910952
-0.11311815 -0.012808893 -0.0095871575 0.0059282216 0.013860416 -0.0085481815 -0.030671282 -0.036257725
0.013160392 -0.012103089 -0.021853453 0.07416239 -0.012675491 -0.0400702 0.005738415 0.0017406917
-0.009372331 0.019867819 -0.026004698 -0.01905286 -0.016341235 -0.0023499883 -0.02074632 -0.018561695
-0.010030681 -0.019369962 -0.023133632 -0.07857416 -0.0066699223 -0.028737968 -0.018217493 -0.032914653
-0.0068869735 -0.020855105 0.0049398905 -0.009601551 0.01629889 -0.0058065066 -0.03273296 -0.0011350724
0.0061156983 -0.01983074 0.00012070444 -0.015205388 -0.0009793505 -0.0032633133 -0.020451896 -0.02670456
-0.0351474 -0.0036565708 -0.02236797 -0.030780489 0.010758354 -0.003820545 -0.025428187 0.0058306414
-0.027867295 -0.035735995 -0.0219645 7.9864285e-06 -0.03194263 0.022136655 0.007510374 -0.033135016
-0.08706492 -0.016711561 -0.032355573 0.0022987563 -0.07552002 0.00068501144 -0.021587996 0.024232602

fc3.bias f4 [16]
00000000: 0a73 71bb cba9 b93e a9bf 893e 2536 3cbc
00000010: c61f e63d ee7c 5e3c be7d a9bb 27ee b6bc
00000020: 9f4f eebc 25a1 1d3f 00dc 11bc 11a8 173c
00000030: b0a1 fd3d 362e 0cbd 365b d8bc 5adf 963d
-0.003684225 0.36262354 0.26904038 -0.011487518 0.11236529 0.01357959 -0.0051724603 -0.022330357
-0.0290907 0.6157401 -0.00890255 0.009256379 0.12384355 -0.034223758 -0.02641068 0.0736682

fc4.weight f4 [1, 16]
00000000: ad35 2fbd 4b5f dc3f 513d 2bc0 513f dbbd
00000010: a5d7 8b3f bae7 fbbd fb9e b7bc 4109 eebb
00000020: 09a1 4bbe 027f e13f 00cd d83c 390d dbbd
00000030: c1f8 703f 8615 7d3e 5d68 0fbe 5bac 9d3f
-0.0427758 1.7216581 -2.6756175 -0.10705436 1.0925184 -0.12300058 -0.022414675 -0.0072642867
-0.19885649 1.7616885 0.02646494 -0.106958814 0.9412957 0.24715242 -0.14004655 1.2318224
